archived_codes/Timeseries_Transformer/Sliding_window_Transformer/checkpoints/BioMonitor_ep 10_B 16.pth (torch, 58310 bytes, 93 tensors)

encoder_layer.self_attn.in_proj_weight f4 [12, 4]
000000 fa cc ca 3e 43 0c 53 3e 22 82 ce 3e c5 e8 15 bd
       0.3960951 0.20610146 0.40333658 -0.03659894
000010 5e 99 6f bc 40 0e 17 be a8 2e 16 3f 66 69 1a 3f
       -0.014623968 -0.1475153 0.5866494 0.60317075
000020 85 b9 75 be 5e b2 3a 3d 3d 58 14 3e cd 2e cb 3d
       -0.23996551 0.04558026 0.14486785 0.09921036
000030 32 22 25 be ab eb f3 be b1 95 81 be d4 f5 c0 bd
       -0.16126326 -0.47640738 -0.25309518 -0.09421888
000040 60 7b 76 3e 46 8f 6a 3e ce be 9b be f1 c6 c0 bc
       0.24070501 0.22906217 -0.3041901 -0.023532363
000050 cf 29 06 be d6 b1 25 3e c7 d8 0a bd 12 62 1c bf
       -0.13101886 0.1618112 -0.03389814 -0.61087143
000060 14 55 bc be 1d f1 f5 3d 74 28 be be 1a 53 80 bd
       -0.3678366 0.12008879 -0.37140238 -0.0626585
000070 6c d0 85 3c 8b 55 9b 3e 51 d2 cc 3d bd 70 ce be
       0.016334735 0.30338702 0.10001052 -0.40320387
000080 f5 fa 18 3f 12 b8 0a bf 9d ac 12 3d c4 4e f2 3e
       0.5975793 -0.5418712 0.035809148 0.47325718
000090 00 9d e1 3e 6c e9 0f 3f 38 14 af 3e 3f 5e aa 3e
       0.44065094 0.5621555 0.34195113 0.3327503
0000a0 2a 61 d6 bd ff 65 70 3e 96 7d 1a 3f ea ca 0f be
       -0.10467751 0.23476408 0.6034788 -0.1404225
0000b0 a1 51 2c be a9 f4 06 bf f8 12 50 be 53 e6 d0 be
       -0.16828014 -0.5271707 -0.20319736 -0.40800723

encoder_layer.self_attn.in_proj_bias f4 [12]
000000 00 00 00 00 00 00 00 00 00 00 00 00 00 00 00 00
       0.0 0.0 0.0 0.0
000010 00 00 00 00 00 00 00 00 00 00 00 00 00 00 00 00
       0.0 0.0 0.0 0.0
000020 00 00 00 00 00 00 00 00 00 00 00 00 00 00 00 00
       0.0 0.0 0.0 0.0

encoder_layer.self_attn.out_proj.weight f4 [4, 4]
000000 20 9a 34 be 60 36 f4 3e 70 34 29 be 18 15 86 be
       -0.17636919 0.47697735 -0.1652391 -0.26187968
000010 42 12 8f 3e b0 7a 5b bd 7c ac e6 3e 58 15 10 be
       0.27943617 -0.0535838 0.4505347 -0.14070642
000020 f4 c8 c1 3e b0 00 67 bd b0 1f 69 3e 82 34 80 be
       0.37848628 -0.05639714 0.22765994 -0.2504006
000030 9c cf bd be d4 cd 51 3e ee 54 99 3e b0 27 51 bd
       -0.37072456 0.20488673 0.2994761 -0.05106324

encoder_layer.self_attn.out_proj.bias f4 [4]
000000 00 00 00 00 00 00 00 00 00 00 00 00 00 00 00 00
       0.0 0.0 0.0 0.0

encoder_layer.linear1.weight f4 [64, 4]
000000 8c bb de be ec ee 52 3e 70 cd cf bd aa a7 be be
       -0.43502462 0.20598954 -0.10146606 -0.37237293
000010 3e 11 d7 be 00 2f 95 bd 96 5d da 3e 68 d9 ea bd
       -0.42005342 -0.07284355 0.42649525 -0.11467248
000020 44 ea 0e be 40 8c 32 bc f6 cd a0 3e d4 e8 66 3e
       -0.13956553 -0.010897696 0.31407136 0.22549754
000030 f0 7e 55 3e ae 7f e5 3e 60 26 5d bd b8 c6 74 3e
       0.20849204 0.44823974 -0.053991675 0.2390393
000040 00 c9 43 be 6c 2f 20 3e 88 32 85 bd 80 60 9c 3d
       -0.19119644 0.1564309 -0.06503779 0.076355934
000050 6a 05 80 3e 10 b6 13 bd a6 88 fc be 40 64 c8 3d
       0.2500413 -0.0360623 -0.49323004 0.09784746
000060 a2 cc c9 3e b2 bd d7 be b4 bd ee 3e 28 ff 9e 3e
       0.39413935 -0.42136914 0.46629107 0.31054044
000070 b8 4a fb 3e e8 ab e7 be 64 d4 ba 3e 4c 73 9d 3e
       0.49080443 -0.45248342 0.36490166 0.30752027
000080 f0 f0 05 bd c0 e4 27 3c 24 56 f2 3e 48 d1 df bd
       -0.03270048 0.010247409 0.47331345 -0.10928589
000090 a0 8f aa 3e 30 f9 a2 be 00 dc 80 bc ec 77 0a 3e
       0.33312702 -0.3183074 -0.015729904 0.13522309
0000a0 74 50 3d 3e 98 1b c4 be 10 63 33 3e 28 53 88 bd
       0.18487722 -0.38302302 0.17518258 -0.06656486
0000b0 e0 56 8e 3d bc c6 15 3e cc 4a 39 3e 58 c5 80 3e
       0.06950164 0.14626592 0.18094939 0.2515056
0000c0 a8 79 f8 be 00 c6 55 3d 96 a2 c7 3e 20 9f 5f 3d
       -0.48530316 0.05219078 0.3899123 0.054595113
0000d0 34 ed 71 be 60 5a dd bd a6 4f d8 be e2 e3 a6 be
       -0.23625642 -0.10808253 -0.42248267 -0.32595736
0000e0 68 3b 4c 3e e4 95 10 be 40 4b 88 bd 2c 77 fc be
       0.19944537 -0.14119679 -0.06654978 -0.4930967
0000f0 98 2a bf 3d 50 79 c6 be 8a 6f ea be 0e ed fa be
       0.09334296 -0.3876443 -0.45788223 -0.49008983
000100 c2 ec 86 be f8 01 cc 3e 10 a4 08 be 18 f2 97 bd
       -0.26352507 0.39845252 -0.13343835 -0.074192226
000110 00 c0 0c 39 6c af b2 3e 5c bb da be 00 bf 35 be
       0.00013422966 0.3489946 -0.4272107 -0.17748642
000120 d8 f4 ed be 6c 26 e8 be 6c 58 10 be 30 56 5f bd
       -0.46475863 -0.45341814 -0.1409623 -0.054525554
000130 4c bc d6 3e 90 76 b3 bd d0 d9 c5 bd 50 8e c8 be
       0.41940534 -0.087628484 -0.09660685 -0.39171076
000140 04 d4 1d 3e 88 3f 1c 3e ac 28 03 be ea 42 a4 be
       0.15412909 0.1525861 -0.12808484 -0.320823
000150 00 f1 f7 3e 90 35 9f 3d 78 65 87 be 94 7f f6 3e
       0.48426056 0.07773888 -0.26444602 0.4814421
000160 7e 56 c5 be bc 50 0b 3e b4 0b f6 be 36 df ab 3e
       -0.3854255 0.13605016 -0.48055804 0.33568734
000170 ce c8 de be 4a 29 ad be f2 86 eb be 1c 9a 01 3e
       -0.43512577 -0.33820564 -0.46001393 0.12656444
000180 08 4e 3c 3e a0 6d 99 3e 00 80 ca bd 26 7b e0 be
       0.18389142 0.2996645 -0.09887695 -0.43843955
000190 52 b7 ad be 70 43 8f be 50 9c 6b 3e 2c a8 07 be
       -0.33928925 -0.27981138 0.23008847 -0.13247746
0001a0 6a 67 90 3e e0 fe a6 3e 30 75 65 3d 8e ad d9 be
       0.282039 0.3261633 0.05601996 -0.42515224
0001b0 74 3b 57 3e ac 57 89 be 66 b2 cf be a0 70 fe bd
       0.21018773 -0.268247 -0.40565795 -0.12423825
0001c0 4a b3 a1 3e f0 bf 8c be bc 34 7a 3e f8 f3 81 be
       0.315821 -0.27490187 0.24434179 -0.25381446
0001d0 38 55 f1 bd 92 ea e3 3e 20 a8 09 3e 80 60 77 be
       -0.11783832 0.445149 0.13443041 -0.24157906
0001e0 68 83 58 be a6 31 b3 3e fc 4d 49 3e 7c 28 b9 3e
       -0.21143878 0.34998816 0.19658655 0.361637
0001f0 a0 e3 c7 3c a0 b4 9e 3d b8 67 94 be aa 53 a1 3e
       0.024400532 0.07749295 -0.2898538 0.31509143
000200 9c 1e 23 be 74 10 fb be be 52 c1 be d4 57 7b 3e
       -0.15929645 -0.4903599 -0.3775844 0.24545223
000210 00 25 7d 3d 38 1f 0c 3e 84 27 ee 3e e0 c5 f7 3d
       0.061802864 0.13683784 0.46514523 0.120982885
000220 9c 59 90 be 50 d4 82 be 6e 69 c4 3e 40 2b 28 3c
       -0.28193367 -0.25552607 0.38361686 0.010264218
000230 6e de d3 be d4 3e 65 3e 80 d6 be 3b 08 c9 87 be
       -0.41380638 0.22387248 0.0058239102 -0.26520562
000240 04 91 dc 3e 04 65 93 3e a0 4e ec 3d 1a 7b a4 3e
       0.43079388 0.28788006 0.11538434 0.3212517
000250 b8 fe 55 3e 60 20 34 be 64 71 c2 3e cc c5 43 3e
       0.20897949 -0.17590475 0.37977135 0.19118422
000260 2c ef 6d be d8 dd 62 be a2 15 e3 3e c4 d6 9e be
       -0.23235768 -0.22154939 0.44352442 -0.31023228
000270 2c a4 6d 3e 7e 7c f2 3e 4e ef 9e 3e 78 76 9f bd
       0.23207158 0.47360605 0.3104195 -0.07786268
000280 e0 25 dd 3e 10 1b 2a be 80 a8 75 bd 50 ba 8f 3e
       0.4319296 -0.16611886 -0.059975147 0.28071833
000290 a2 6e 89 be e6 8c a9 be b4 2d a9 3e 80 7d 8e bb
       -0.2684222 -0.3311531 0.3304268 -0.004348457
0002a0 b0 3a f5 3d 30 99 04 3d 00 c9 66 3d 28 19 90 be
       0.119740844 0.032372653 0.056344032 -0.28144193
0002b0 90 3b bc 3e 10 7f 7e be 9a c2 ce be 56 4f f2 3e
       0.36764193 -0.24853158 -0.40382844 0.47326154
0002c0 7e cb a1 3e 20 dc 2a 3d 8e 0a 91 3e 20 c7 f3 3e
       0.31600565 0.041713834 0.28328365 0.47612858
0002d0 a0 a8 23 3e 6c 81 1a 3e 06 12 db be 2c b8 29 be
       0.15982294 0.15088433 -0.42787188 -0.16574162
0002e0 18 36 2c 3e d8 c2 b5 3e f8 a3 3c 3e 7c 47 c1 be
       0.1681751 0.35500216 0.18421924 -0.3774985
0002f0 24 e6 2e be a0 eb eb 3c 36 9e bc 3e b0 df d6 3d
       -0.17079979 0.028798878 0.36839455 0.10491884
000300 e8 ed 3d 3e b0 83 76 3d 90 51 a5 3d 0e 78 d6 3e
       0.18547785 0.06018418 0.080721974 0.4188847
000310 4c 97 d8 3e c8 bb 32 3e b4 9b bd 3e 40 e5 fa 3d
       0.4230293 0.17454445 0.37032855 0.12250757
000320 b8 b5 4f be 16 1f e9 3e 30 23 06 be 60 3d c5 bc
       -0.20284164 0.4553153 -0.1309936 -0.024077117
000330 f0 28 17 3d ec b6 12 3e 80 c1 be bd 76 a9 f3 be
       0.036904275 0.14327592 -0.09314251 -0.47590226
000340 dc c3 1f 3e 06 2c fd be 20 8c b8 bd b0 c8 cf 3d
       0.15602058 -0.4944765 -0.09011102 0.101457
000350 9c 96 42 3e 84 d5 d9 be aa c5 a4 be 64 e3 a5 3e
       0.19002765 -0.42545712 -0.32182056 0.32400048
000360 fe e3 8a be 96 4b e3 3e a8 b1 96 3d 80 5b 72 be
       -0.2712707 0.44393605 0.07358104 -0.23667717
000370 d0 cb 70 be e0 50 a1 3d 7c a3 b5 be ac 92 52 3e
       -0.23515248 0.07876754 -0.3547629 0.20563763
000380 44 3b 46 3e a2 52 dd be 80 6b bf 3e 68 33 b6 3e
       0.19358546 -0.43227106 0.37386703 0.35586095
000390 40 b4 3d be 00 b5 3d bd 32 ba fa 3e 92 88 99 3e
       -0.18525791 -0.046315193 0.4897018 0.29987007
0003a0 fc fd b6 be 56 f8 ee be 44 88 91 3e 18 d8 47 3e
       -0.3574065 -0.4667384 0.28424275 0.19516027
0003b0 dc ef a9 3e 82 48 a3 be 10 c2 59 be 6c ab 94 be
       0.3319081 -0.31891257 -0.21265435 -0.29037035
0003c0 cc 2d 00 be 54 cf f0 3e 88 e3 ca be 44 fc 2e 3e
       -0.1251747 0.4703318 -0.39626718 0.17088419
0003d0 b4 02 63 3e 78 ae 1a 3e 00 09 43 3e d2 70 86 be
       0.22169 0.15105617 0.19046402 -0.2625795
0003e0 82 84 a7 3e 84 14 0c be 6c b0 42 3e 6a 53 af 3e
       0.32718283 -0.13679701 0.19012612 0.34243327
0003f0 f0 4d d0 3e 34 7f 34 3e f8 81 9a bd cc 3d 2f be
       0.40684462 0.17626649 -0.07544321 -0.17113417

encoder_layer.linear1.bias f4 [64]
000000 a6 e1 8b be 58 fd f5 3d e8 05 e1 be 8c 27 d8 be
       -0.27320594 0.12011212 -0.4394982 -0.42217672
000010 f8 ea 76 3e 7c 8f a1 3e ae 72 f1 be 64 0e 24 3e
       0.24113071 0.31554782 -0.47157806 0.16021115
000020 f0 ae 1c be c2 59 c0 be c8 42 a2 bd 88 e0 9f bd
       -0.15301108 -0.3756848 -0.07922894 -0.07806498
000030 60 c2 7c 3e 74 28 2e be 1c a2 ff be 0c 14 02 be
       0.24683523 -0.17007619 -0.49928367 -0.1270296
000040 e8 44 96 3d 0e c0 eb be 08 5c 97 bd 84 58 4a be
       0.073373616 -0.46044964 -0.073906004 -0.19760329
000050 a6 6b 98 3e e0 7d d2 3e 60 e1 cb 3d 74 fc d2 3e
       0.2976963 0.4111166 0.09955096 0.4120823
000060 58 83 a1 bd 9c c4 66 3e 8a b1 b8 3e 4a 6c a5 3e
       -0.0788638 0.22535938 0.36072952 0.3230918
000070 08 8d 71 3e 9c d9 dd be 26 57 ec 3e 76 2d 98 3e
       0.23588955 -0.43330085 0.4616024 0.29722184
000080 a0 c3 56 3d ec a2 64 3e ac 3c d8 3e e4 75 5f 3e
       0.052432656 0.22327775 0.4223379 0.21822315
000090 18 af 62 be 2c 04 7a 3e d0 dd af bd b8 b8 7f 3e
       -0.22137105 0.24415654 -0.08587229 0.24972808
0000a0 98 62 05 be 00 48 8c 3a 70 96 b7 bd 18 e4 1a 3e
       -0.13025892 0.001070261 -0.089642406 0.15126073
0000b0 80 b1 96 bd 10 82 e6 bd 08 19 cd 3e 72 d0 a9 be
       -0.07358074 -0.11255276 0.4005816 -0.33166844
0000c0 50 37 cd be ca de a2 be fe f6 cb 3e d0 ee 7e be
       -0.40081263 -0.318106 0.39836878 -0.24895787
0000d0 6c d1 2c 3e 20 0a 56 3e 1c 1c d0 be 9c 29 44 3e
       0.16876763 0.209023 -0.40646446 0.19156498
0000e0 a8 65 82 bd ee e0 8b be c8 9a ff 3e 0e 1c b9 be
       -0.06367046 -0.27320045 0.49922776 -0.36154217
0000f0 8c c7 a1 3e 3c 55 c5 be c8 a5 ac 3d ae ab 9d 3e
       0.31597555 -0.3854159 0.08430058 0.30795044

encoder_layer.linear2.weight f4 [4, 64]
000000 dc 4c d7 bd 18 b1 e8 3d 00 cf 06 bc 58 dd 0b 3d
       -0.10512707 0.11361903 -0.008228064 0.034146637
000010 b0 b6 42 3c d8 bb c8 bd 10 7f a2 bd 28 f5 8d bc
       0.011884376 -0.09801453 -0.079343915 -0.017328814
000020 58 c2 a5 bc 80 2f c9 3b ae 02 ff 3d 54 3a b9 bd
       -0.020234272 0.0061396956 0.12451683 -0.09044328
000030 8c 02 22 3d 8c 93 13 3d e8 ea ee 3d 24 e7 18 bd
       0.03955321 0.036029384 0.116658986 -0.037329808
000040 68 6e f0 bc 04 46 93 bd f2 6f f8 3d 64 de d8 bd
       -0.02934952 -0.07191089 0.12130727 -0.10589293
000050 00 9c aa b9 e8 0c 7e bd a0 45 31 bc ce e4 e6 3d
       -0.00032541156 -0.062024027 -0.010819823 0.1127411
000060 a8 0d cd bc 84 cb 43 3d 44 bc e9 bd 38 08 22 bd
       -0.025030926 0.04780151 -0.11412862 -0.03955862
000070 e4 c4 0e 3d f8 c5 fc bd b8 c1 9d bc 84 ce 1b bd
       0.03485574 -0.12342447 -0.019257411 -0.038038746
000080 42 36 b9 3d 80 f5 81 bd 4c 0e 2f bd b2 b8 8d 3d
       0.09043552 -0.063456535 -0.042738244 0.069199935
000090 1c 44 e5 3d d2 9e 8d bd 0c c2 b0 bd 96 aa 98 3d
       0.111946315 -0.06915058 -0.086307615 0.07454412
0000a0 00 f9 07 3c ee 12 d7 3d e4 dd b5 bd 1a 24 e8 3d
       0.008299112 0.105016574 -0.08880213 0.11335011
0000b0 7c f2 2e 3d 0c b9 65 3d b4 6c 95 bd a8 ee f1 3d
       0.04271172 0.056084678 -0.07296124 0.11813098
0000c0 a0 a9 b5 bd 7c 8b 66 3d d0 43 f4 bd 0c 54 74 bd
       -0.08870244 0.056285366 -0.11926997 -0.059650466
0000d0 00 28 a8 bc 0c 7a 0f 3d 48 e0 a0 bc f0 31 c4 3c
       -0.020526886 0.035028502 -0.019638196 0.023949593
0000e0 c8 99 1e 3d 52 cb 80 bd d4 87 06 bd 98 f1 c2 3d
       0.038720876 -0.0628878 -0.03284438 0.095187366
0000f0 90 e4 c1 3d c4 26 09 3d e0 77 5f 3c 08 f5 2b bd
       0.09467423 0.033484235 0.01363942 -0.041981727
000100 ea fc 84 3d 24 b9 49 3d 38 61 b8 3c a4 57 d1 3d
       0.06493552 0.04924883 0.022507295 0.10221794
000110 68 dd ca 3c 70 dc 01 3d 58 58 fc 3c 0a 56 f8 bd
       0.024763778 0.031704366 0.030803844 -0.12125786
000120 60 64 bb 3c 50 02 de 3c 68 29 d6 bd dc 47 ab bd
       0.022875011 0.027100712 -0.10457116 -0.083633155
000130 4e 7f db bd 4e 74 c5 3d 64 f2 e6 3d 50 7a b5 bd
       -0.10717641 0.09641324 0.11276701 -0.0886122
000140 8c 16 0c bd 3e d9 c1 bd 08 b1 98 bc 9c 07 81 3d
       -0.03420119 -0.09465264 -0.018639103 0.063002795
000150 b4 d9 b4 3d 42 2a b5 bd 54 17 c3 3d a8 3e 6a bd
       0.08830586 -0.08845951 0.09525934 -0.05718866
000160 70 01 92 bc f4 83 48 3d 5e cb b9 3d 10 5e 57 3c
       -0.017822951 0.048953965 0.09071992 0.013144985
000170 fc 01 fe bd 0c 47 e7 3d 70 f5 b9 bd c8 43 9e bc
       -0.12402722 0.11292848 -0.090800166 -0.01931943
000180 98 03 68 bd 80 77 83 bb d0 1e 21 bd 00 57 e7 bb
       -0.056644052 -0.0040120482 -0.039336026 -0.0070599318
000190 1c 0a d9 3d 28 f0 84 3d 20 d4 2f 3d dc 54 2b bd
       0.10597631 0.06491119 0.042926908 -0.041828975
0001a0 2c 28 7e 3d c8 76 b1 bc 38 e3 a3 3c 60 b7 8f 3c
       0.06205003 -0.021663085 0.020005807 0.017543495
0001b0 10 a8 f8 bd 84 f2 a5 3d c0 0e c2 3b 00 b3 b2 3c
       -0.121414304 0.08102897 0.0059221685 0.02181387
0001c0 b4 c7 32 bd 4c 33 58 3d 18 27 e4 bc f4 b0 1c bd
       -0.043647483 0.052783296 -0.027850673 -0.038254693
0001d0 e8 e8 a6 3c 9c 43 2d 3d 0e 07 84 3d 4c d1 63 bd
       0.02037473 0.042300805 0.06446658 -0.055619523
0001e0 7e 2e ad bd 30 dc bc bd 8e 08 97 bd f6 4b d5 3d
       -0.08456133 -0.09221685 -0.073746786 0.10414879
0001f0 5c b7 b4 bd 70 8f a9 bd f8 11 a6 bd a0 e1 6c bd
       -0.088240355 -0.08279312 -0.08108896 -0.05783236
000200 d8 e8 82 bd 32 4c 85 bd 9a 19 c3 bd 94 aa 8a bd
       -0.06392068 -0.06508674 -0.095263675 -0.067708164
000210 84 11 b9 bd 76 99 c5 3d 0e 09 89 bd 4e c1 81 bd
       -0.09036544 0.09648411 -0.0669118 -0.06335698
000220 54 f1 04 bd 5c 1a 62 3d 00 fa 04 3b 80 e3 8d bd
       -0.03245671 0.05520092 0.0020290613 -0.06928158
000230 de 5f de 3d 68 c1 af bc 34 d7 64 bd 58 17 bd bd
       0.10858129 -0.021454528 -0.055869296 -0.09232968
000240 1a 1b c0 3d aa d5 fc 3d ec 85 39 3d 80 65 c4 bd
       0.09380169 0.12345441 0.045293733 -0.09589672
000250 70 66 83 3c ec bf 0c 3d 16 fa ed 3d 10 a1 b4 bc
       0.016040057 0.03436272 0.11619966 -0.022049457
000260 80 74 45 bd a0 b7 9b 3d 92 18 bb bd 12 5b b1 bd
       -0.048206806 0.07603383 -0.09135546 -0.086599484
000270 c8 9a d2 bc 10 44 91 bc 3c 8c 86 3d d0 b9 71 3c
       -0.025708571 -0.01773265 0.06569716 0.014753774
000280 b4 22 18 3d fa 28 cb 3d 28 b4 7d 3d 4c 7e 58 bd
       0.03714247 0.09919925 0.06193939 -0.05285482
000290 cc 7a d9 bd 84 08 8c 3d d0 87 27 3d 54 84 28 bd
       -0.10619125 0.06837562 0.040901005 -0.041141823
0002a0 80 f6 b7 3c 9a 12 a3 bd c8 07 0f 3d e0 24 38 3c
       0.022456408 -0.07962532 0.03491953 0.01123926
0002b0 0c 27 ae bd e0 8e 8a bb e6 c8 a5 3d f4 85 ce bd
       -0.08503541 -0.004228458 0.08094959 -0.10084143
0002c0 10 e1 4d bd f6 76 bd 3d b2 a0 87 3d f8 d5 6e bd
       -0.050263464 0.092512056 0.06622447 -0.058309525
0002d0 e0 2d 80 bb e6 9e d2 3d 5c a1 fb 3d 20 8b 6c 3c
       -0.0039117187 0.10284214 0.12286636 0.014437467
0002e0 44 25 40 3d e0 67 9a 3c 14 0f 18 3d 64 f8 09 bd
       0.04691054 0.01884836 0.037123755 -0.03368415
0002f0 b0 3b 5f 3d e0 97 b4 3d e0 ba 87 bb 32 08 bc 3d
       0.05450028 0.0881803 -0.0041421503 0.09181251
000300 2e 60 d1 bd 1c 72 6f bd ea 6b e9 bd e2 63 fe 3d
       -0.10223423 -0.058458433 -0.11397536 0.12421395
000310 16 ab e4 3d 00 72 bf 3c e8 c2 f4 bd 24 0d f4 bd
       0.111654446 0.02336979 -0.11951238 -0.11916569
000320 3e 13 91 bd 28 5a 78 3d d0 b8 41 bd 78 e2 af 3c
       -0.07083748 0.060632855 -0.04729539 0.021470293
000330 0c 97 f4 3d 38 1e 63 3d 10 a6 5d 3d fc 88 db bd
       0.119428724 0.05544874 0.054113448 -0.10719487
000340 40 17 cb 3b 30 50 40 bc 82 95 91 bd f0 0c 95 bd
       0.00619784 -0.011737868 -0.071085945 -0.07277858
000350 94 f0 1f 3d 94 75 67 bd 5e f5 ab bd 28 b4 52 bd
       0.039047793 -0.056508616 -0.083964095 -0.05144134
000360 aa f6 ec 3d d8 bf 74 bd 0e f6 d3 bd 40 cb 79 bb
       0.11570485 -0.05975327 -0.103496656 -0.0038115531
000370 ac 60 ee 3d e8 32 f4 3c 80 38 f2 ba 90 b9 00 bd
       0.116395324 0.02980943 -0.0018479973 -0.031426966
000380 c0 c9 10 bc 8e 8a db bd 00 57 f0 ba 38 3d a4 3d
       -0.008837163 -0.107197866 -0.0018336475 0.08019489
000390 f8 fb 65 3d 60 b9 b2 3b a4 b3 fd 3d c4 d0 59 bd
       0.0561485 0.0054542273 0.12387779 -0.05317761
0003a0 68 3a 64 3d 9c eb b6 bd e8 62 0c 3d d6 2e 96 3d
       0.055719763 -0.08931658 0.03427401 0.07333152
0003b0 d0 e3 eb bd cc 1d b6 3d 94 5a 64 bd 18 f0 54 bd
       -0.11518061 0.08892402 -0.055750445 -0.051986784
0003c0 72 1e ff bd fa 42 e6 3d 9a 0d 96 3d a0 f3 d7 3d
       -0.12456979 0.112432435 0.07326813 0.10544515
0003d0 b4 04 b9 bd 2c ac 53 bd e0 bc fc 3c 54 e8 82 bd
       -0.090341 -0.051677868 0.030851781 -0.06391969
0003e0 0a a3 f3 bd 4a e6 e8 bd 90 ef ce bc 4e eb a9 bd
       -0.118963316 -0.11372049 -0.025260717 -0.08296834
0003f0 a8 d0 b4 3c b0 d9 b1 3d 10 2e 93 bd 30 2b 8d 3d
       0.022072151 0.08684099 -0.0718652 0.06893003

encoder_layer.linear2.bias f4 [4]
000000 bc b3 37 3d b0 ca 6d bc b6 b1 cc bd a2 ba e7 bd
       0.044849142 -0.0145136565 -0.09994833 -0.11314894

encoder_layer.norm1.weight f4 [4]
000000 00 00 80 3f 00 00 80 3f 00 00 80 3f 00 00 80 3f
       1.0 1.0 1.0 1.0

encoder_layer.norm1.bias f4 [4]
000000 00 00 00 00 00 00 00 00 00 00 00 00 00 00 00 00
       0.0 0.0 0.0 0.0

encoder_layer.norm2.weight f4 [4]
000000 00 00 80 3f 00 00 80 3f 00 00 80 3f 00 00 80 3f
       1.0 1.0 1.0 1.0

encoder_layer.norm2.bias f4 [4]
000000 00 00 00 00 00 00 00 00 00 00 00 00 00 00 00 00
       0.0 0.0 0.0 0.0

transformer_encoder.layers.0.self_attn.in_proj_weight f4 [12, 4]
000000 c3 01 cd 3e 78 ec 4a 3e b0 36 cc 3e 00 b1 28 bd
       0.40040407 0.19816768 0.39885473 -0.041184425
000010 31 aa a4 bb 7e 6e 29 be c5 5f 0d 3f fb 3b 10 3f
       -0.005025171 -0.16546056 0.5522426 0.5634152
000020 f3 76 76 be 97 57 b4 3c 99 64 14 3e 17 5a 84 3d
       -0.24068813 0.022014422 0.144915 0.06462496
000030 af cd 21 be 7b e7 bb be 23 43 60 be 00 3c e4 bc
       -0.15801118 -0.36700043 -0.2190061 -0.027860641
000040 6b b2 67 3e 48 8c 87 3d af a1 a1 be c0 39 99 bc
       0.22626655 0.066185534 -0.31568667 -0.018704295
000050 be ee f8 bd 85 52 75 3d 11 5e ff bc 48 a2 df be
       -0.121549115 0.05989315 -0.031172784 -0.43678498
000060 8f 7a ae be ba 48 00 3d 8c 00 c9 be f5 f4 b4 bc
       -0.3407788 0.031319357 -0.3925823 -0.02208946
000070 9b fe a9 3c bc 75 fc 3d 11 3e b7 3d 90 43 5a be
       0.020751288 0.123271435 0.08947385 -0.21314836
000080 e0 65 1d 3f b5 1d 16 bf 09 8b 99 3c b6 22 d8 3e
       0.61483574 -0.5863908 0.018743055 0.42213982
000090 0e 96 cf 3e 73 4c 21 3f cf b6 c0 3e 00 45 c9 3e
       0.4054417 0.6300728 0.37639472 0.39310455
0000a0 e2 db 8a bd cc f2 39 3e 2b 51 0f 3f 7e 9c 3c be
       -0.067802206 0.18159026 0.5598323 -0.18419072
0000b0 7c f4 0c be 00 4f 19 bf 43 25 89 be 1c 86 e2 be
       -0.13765138 -0.5988617 -0.2678624 -0.44242942

transformer_encoder.layers.0.self_attn.in_proj_bias f4 [12]
000000 77 82 d9 bb 54 86 06 bc 53 c0 75 bc a3 fc 03 3b
       -0.006637867 -0.008210737 -0.014999467 0.0020139597
000010 56 79 a8 37 dc c5 82 b8 7f e1 4b 38 13 1e 8c 38
       2.0083662e-05 -6.235737e-05 4.860898e-05 6.681322e-05
000020 93 7d cb 3b 85 ed d9 bb ee 54 c2 3b 25 f2 ea 3b
       0.006210038 -0.006650629 0.0059305346 0.007169979

transformer_encoder.layers.0.self_attn.out_proj.weight f4 [4, 4]
000000 7c c3 5d be ab c7 0b 3f 21 1b ee bd c3 2c b6 be
       -0.21656603 0.54601544 -0.11626268 -0.35581025
000010 c1 46 97 3e 1d bf 19 bd ba 2f de 3e e7 e7 18 be
       0.29546168 -0.037535775 0.43395787 -0.14932214
000020 d3 e8 c2 3e dc 80 d6 bd 66 b2 69 3e 1a 9c 4b be
       0.38068256 -0.10473797 0.2282196 -0.19883767
000030 65 75 be be 48 3b 1f 3e f5 e7 89 3e 20 04 bd bb
       -0.3719894 0.15549958 0.26934782 -0.005768314

transformer_encoder.layers.0.self_attn.out_proj.bias f4 [4]
000000 8e 23 e4 bb b3 80 93 3b 08 e0 15 3c 3a ed 4b bb
       -0.0069622463 0.004501426 0.0091476515 -0.003111674

transformer_encoder.layers.0.linear1.weight f4 [64, 4]
000000 b7 fb d8 be 6a 9b 47 3e 7f 86 e0 bd e3 8b b8 be
       -0.42379543 0.1949288 -0.10963153 -0.36044225
000010 29 02 cf be 28 ff be bd fa ff d8 3e bb 87 e6 bd
       -0.40431336 -0.09326011 0.42382795 -0.11256357
000020 c1 33 10 be 13 09 85 bc a6 4f 9e 3e 68 2a 5d 3e
       -0.14082243 -0.016239678 0.30920142 0.21598208
000030 81 02 24 3e 8f 41 03 3f f9 8a cc bd 3c 27 a0 3e
       0.1601658 0.5127191 -0.099874444 0.31279933
000040 50 91 35 be 17 31 23 3e c3 60 c7 bd 97 10 d1 3d
       -0.17731214 0.15936695 -0.09735253 0.102082424
000050 53 67 9b 3e 8e e3 a1 bd 5e b1 f3 be bb bf 5c 3d
       0.30352268 -0.07904731 -0.47596258 0.053893786
000060 01 a4 0f 3f fe af 0b bf 4c 79 0e 3f 49 8a 03 3e
       0.56109625 -0.5456542 0.55653834 0.1284572
000070 fd 68 d8 3e 0f bc e5 be f7 76 db 3e a1 6c 88 3e
       0.422676 -0.4487004 0.428642 0.26645377
000080 46 23 0f bc bd 3d 6c bc 99 5d ed 3e 0c 82 e5 bd
       -0.008736437 -0.014419016 0.46360472 -0.11206445
000090 9d 00 d1 3e 66 5b bd be dc e8 90 bc c0 e4 8a bc
       0.4082078 -0.36983794 -0.017689161 -0.01695478
0000a0 b5 1b 0d 3e 88 05 ee be 21 07 84 3e 24 4a f1 bd
       0.137801 -0.46488595 0.2578669 -0.11781719
0000b0 d1 f1 bb 3d 3b e2 df 3d 05 d4 35 3e 04 39 56 3e
       0.09176982 0.10931822 0.1775666 0.20920187
0000c0 d7 c4 fa be a7 2c 67 3d 74 66 ce 3e 7e 4a 2b 3d
       -0.48978302 0.05643907 0.4031254 0.04181909
0000d0 9b 3b 75 be 29 52 a1 bd 95 2a e7 be e7 33 80 be
       -0.23948519 -0.07876999 -0.45149675 -0.25039598
0000e0 a2 77 a7 3e 27 34 9c be f6 e6 fd 3c 57 33 24 bf
       0.3270846 -0.3050854 0.03099392 -0.6414084
0000f0 2c 6e 12 3e a5 bc f5 be 26 00 b6 be 35 f0 1d bf
       0.1429984 -0.47995487 -0.35546988 -0.6169465
000100 3f 11 84 be f8 6b c6 3e d6 53 da bd 0f 15 e0 bd
       -0.25794408 0.3875425 -0.10660522 -0.109415166
000110 a1 48 72 3d db 78 9b 3e 05 c6 cf be 53 12 4e be
       0.059151296 0.30365643 -0.40580764 -0.20124178
000120 a5 f8 ed be 00 ca e9 be 89 39 11 be 88 14 26 bd
       -0.46478763 -0.45661926 -0.14182104 -0.040546924
000130 78 23 f9 3e c2 09 2f be ab 4d 97 bd 6d cb 02 bf
       0.48659873 -0.17093566 -0.07387861 -0.51091653
000140 d8 06 34 3e 45 0e 0a 3e df f5 03 be 36 78 aa be
       0.17580736 0.13482006 -0.12886761 -0.3329484
000150 1b 92 ef 3e 6c 88 ab 3c d2 38 63 be bd 65 df 3e
       0.46791157 0.020939074 -0.22189644 0.43632308
000160 ef 5c d4 be 33 8f 01 3e 52 cb e5 be be 06 9f 3e
       -0.41477153 0.12652282 -0.44881684 0.3105983
000170 ce 4a e5 be 16 ef a6 be fc 74 ec be 28 7f 18 3e
       -0.44783634 -0.32604283 -0.46183002 0.14892256
000180 80 c4 4c 3e 4b 44 98 3e 2e 58 ef bd 0c 6e dd be
       0.19996834 0.29739603 -0.11686741 -0.43248022
000190 f8 4a ae be 7b 83 8d be a2 1e 65 3e 2d 5d f3 bd
       -0.34041572 -0.27639374 0.22374967 -0.11883006
0001a0 3b fb 9c 3e b2 e7 9b 3e 0b e9 6d 3d 3b 56 e3 be
       0.30660424 0.30450207 0.058083575 -0.44401726
0001b0 98 51 85 3e 8a bb 8f be a8 20 cd be c8 bb 33 be
       0.26038814 -0.28072768 -0.40063977 -0.17552102
0001c0 ba 5a 90 3e af d0 85 be 4e 3a 83 3e 8b 72 74 be
       0.2819422 -0.26135775 0.2563042 -0.2387182
0001d0 db 1a f1 bd 85 b8 e0 3e 4f b3 0b 3e 5d c0 74 be
       -0.117727004 0.43890777 0.1364262 -0.23901506
0001e0 67 f0 57 be af 71 b2 3e 11 96 56 3e 2c 6e ad 3e
       -0.210878 0.3485236 0.20955683 0.33873117
0001f0 74 45 50 3d 26 bd 0b 3d e9 e8 83 be 5e fa 83 3e
       0.050847486 0.034115933 -0.25763634 0.25776953
000200 6d 60 3d be 05 09 ee be 11 47 c0 be ce 04 83 3e
       -0.18493815 -0.46491256 -0.3755422 0.25589603
000210 4f 0b 39 3d 99 58 1b 3e 5c 12 e9 3e 70 52 0d 3e
       0.0451768 0.15170516 0.4552182 0.13800979
000220 cb 16 97 be 95 68 73 be 34 57 c5 3e 28 89 58 3c
       -0.29509577 -0.23770364 0.38543093 0.013216294
000230 0d a4 ca be 5b 33 63 3e a4 21 cd bc a5 12 6f be
       -0.39578286 0.2218756 -0.025040455 -0.23346956
000240 5f c7 e3 3e db bd 98 3e 3d 93 b5 3d 54 27 a4 3e
       0.44488046 0.29832348 0.08865974 0.32061255
000250 ca cf 63 3e 5c 80 29 be 85 37 b9 3e e2 07 3c 3e
       0.22247234 -0.16552871 0.3617517 0.18362382
000260 84 e6 6f be 04 ea 54 be 7c a2 de 3e 14 1f 9c be
       -0.23427778 -0.20792395 0.4348334 -0.3049246
000270 8b 01 5e 3e 59 ce ef 3e 8d c9 9f 3e 93 15 79 bd
       0.21680276 0.46837118 0.3120846 -0.06081159
000280 d8 69 f5 3e 7e 5c 3a be 50 d3 84 bd 8a c3 65 3e
       0.47932315 -0.18199345 -0.06485617 0.22437873
000290 51 7e 81 be 5d 09 b6 be 77 01 ab 3e 42 d1 0c bc
       -0.25291684 -0.3555402 0.33399555 -0.008594813
0002a0 a3 69 0f 3e 5c b9 d5 3c ea 84 33 3d 4b 85 92 be
       0.14005141 0.026089363 0.04382793 -0.2861732
0002b0 e5 27 a1 3e 39 00 4e be eb ce d6 be e5 f3 02 3f
       0.3147575 -0.20117272 -0.4195474 0.51153404
0002c0 47 5c 66 3e 67 f1 9b bd 70 cc bb 3e 38 d8 c1 3e
       0.22496139 -0.07614403 0.3667941 0.37860274
0002d0 b0 85 35 3e a3 be 53 3e 89 ab ee be 16 35 00 be
       0.17726779 0.20678191 -0.46615246 -0.1252025
0002e0 15 28 18 3e 79 84 b6 3e af 21 43 3e aa 5a be be
       0.1485904 0.35647944 0.19055818 -0.37178546
0002f0 60 14 1c be 50 ab 85 bb 28 cb b7 3e fa fd ef 3d
       -0.15242147 -0.00407926 0.35897183 0.11718364
000300 21 fa 09 3d b1 ee 88 3d 81 fa 9b 3c 4b a0 ba 3e
       0.033685807 0.06686152 0.019040348 0.3645042
000310 eb 16 06 3f 88 5f 43 bc eb f0 d8 3e cd c7 a4 bc
       0.5237872 -0.011924632 0.42371306 -0.020114804
000320 7d 69 3e be 81 41 e4 3e c8 85 f9 bd f9 6e 55 bd
       -0.18594928 0.44581226 -0.1218372 -0.052107785
000330 4e ba 3e 3d 06 5c 0b 3e 7c 6f bc bd 92 ee f4 be
       0.046564393 0.13609323 -0.092009515 -0.47838265
000340 6c 83 3c 3e 78 92 05 bf f0 ed 84 bd 95 1e a7 3c
       0.18409508 -0.5217662 -0.064906955 0.020400325
000350 bb ce 25 3e 9f 9f e8 be 4d 4f 8d be b8 04 8c 3e
       0.16192143 -0.4543428 -0.27599564 0.2734735
000360 8f a5 8c be 6c 3e e2 3e 80 69 d9 3d dd dd 87 be
       -0.2747006 0.4418825 0.10615826 -0.26536456
000370 a3 cd 80 be 38 19 af 3d 7e 49 af be 28 e1 54 3e
       -0.25156888 0.08549732 -0.34235758 0.20789015
000380 1f 06 08 3e eb 06 e1 be 4b 37 dd 3e ab 90 95 3e
       0.13283585 -0.4395059 0.43206248 0.29211935
000390 57 19 44 be 03 90 22 bd 42 9b f9 3e 00 ad 9a 3e
       -0.19150291 -0.03968812 0.48751265 0.30210114
0003a0 7f 00 bb be 81 3b e9 be 69 31 97 3e 59 08 3f 3e
       -0.36523816 -0.4555321 0.29529884 0.18655528
0003b0 62 70 d8 3e 62 64 f0 be 5c 17 09 be 7c fb eb be
       0.4227324 -0.46951586 -0.13387817 -0.46090305
0003c0 2f 7a 0a be a7 7b f4 3e 40 cd c7 be 84 39 2c 3e
       -0.13523172 0.4775059 -0.3902378 0.16818815
0003d0 e1 74 0c 3e c2 c2 2d 3e e6 17 1f 3e 2b 08 48 be
       0.13716461 0.16968825 0.1553646 -0.19534366
0003e0 92 eb 83 3e ab f7 10 be 87 12 65 3e 1d 69 b0 3e
       0.25765663 -0.14156978 0.22370349 0.34455195
0003f0 5e ac bb 3e d0 fe 4e 3e 96 23 85 bd 1d 2c 2a be
       0.36654943 0.20214391 -0.06500928 -0.1661839

transformer_encoder.layers.0.linear1.bias f4 [64]
000000 d9 c0 90 be 02 bc ee 3d 65 66 d6 be 77 01 b8 be
       -0.2827213 0.116569534 -0.41874996 -0.35938618
000010 da 55 74 3e 77 a4 a1 3e 54 2a 9a be 56 49 20 3e
       0.23860875 0.3157079 -0.3011042 0.15652975
000020 81 53 20 be e9 78 80 be 5e 5a 0f bd 0d 6f ca bd
       -0.15656854 -0.25092247 -0.03499829 -0.098844625
000030 49 6c 72 3e 45 4b 0e be e5 99 b3 be 09 6b 8a bd
       0.2367412 -0.138959 -0.3507835 -0.067586966
000040 66 d7 9a 3d 91 31 f5 be 4f 88 8b bd 41 85 0d be
       0.07560615 -0.4788938 -0.06813108 -0.13820364
000050 21 5e 9c 3e da 7c c6 3e 17 9b d0 3d a3 e5 d0 3e
       0.30540565 0.3876713 0.10185831 0.408002
000060 00 28 8a bd 04 d8 65 3e b5 a2 bb 3e 15 a1 bb 3e
       -0.06745911 0.22445685 0.36647573 0.36646333
000070 9d 2a 66 3e 19 b6 dd be fd bf ea 3e 6e b6 96 3e
       0.22477193 -0.43302992 0.458496 0.29436058
000080 fa 3e 4b 3d 96 a3 65 3e d3 d9 d4 3e 3c c1 5d 3e
       0.049620606 0.22425684 0.41572437 0.21655744
000090 bf f2 3b be 89 07 80 3e 23 62 ba bd 68 ef 7a 3e
       -0.18354319 0.2500575 -0.09100749 0.24505389
0000a0 0d d3 c1 bd 2f ea 5d bb 87 34 b0 bd 74 29 19 3e
       -0.09464083 -0.0033861508 -0.08603769 0.1495722
0000b0 e2 c8 17 3c 39 05 3b bd 78 89 cc 3e 12 27 ae be
       0.009264203 -0.045659278 0.3994863 -0.34014183
0000c0 ad b9 8c be 58 f7 20 be c4 38 cc 3e 89 61 79 be
       -0.2748541 -0.15719354 0.3988706 -0.24353613
0000d0 b9 28 34 3e 76 0a 47 3e da 04 c8 be a1 8f 3f 3e
       0.1759366 0.19437584 -0.390662 0.18707134
0000e0 96 2a b7 bb 5c f4 88 be 90 12 fa 3e aa 73 7f be
       -0.0055897934 -0.2674893 0.48842287 -0.24946466
0000f0 a9 bb 9f 3e 5d d3 d9 be 56 e1 95 3d 46 4a 9f 3e
       0.3119786 -0.4254407 0.0731837 0.31111354

transformer_encoder.layers.0.linear2.weight f4 [4, 64]
000000 83 fa e4 bd 34 3c e6 3d 8d 4d 15 3d 6e 4e 75 3d
       -0.11180594 0.112419516 0.03645091 0.05988925
000010 00 bb 85 3c 66 4a ce bd 0a 0b 47 3d 4d 08 48 bc
       0.01632452 -0.10072784 0.048594512 -0.01220901
000020 fa df 46 bc 15 28 b7 bd 70 2d 59 3e 74 4a 32 bd
       -0.012138361 -0.08943192 0.2120874 -0.043528035
000030 c1 d0 1b 3d bd a2 49 3d fa 97 b9 3d 29 3b 8c bd
       0.03804088 0.049227465 0.0906219 -0.068472214
000040 34 4d b3 bc 85 3e 8b bd 8d 82 1f 3e ec b1 0f be
       -0.0218874 -0.06799034 0.15577145 -0.14032716
000050 bc 68 00 bc 67 37 84 bd de cd 3b 3c e0 94 f2 3d
       -0.007837471 -0.0645588 0.011462657 0.11844802
000060 3b a8 2f bd 2c e6 3e 3d 41 a8 fb bd 21 ba 40 bd
       -0.042885046 0.046606228 -0.12287951 -0.047052506
000070 85 dd 0c 3d 07 a4 0a be fa 9b 89 bc 30 22 09 bd
       0.034390945 -0.13539134 -0.016798008 -0.03347987
000080 17 49 ca 3d ae 3f 87 bd e6 72 34 bd 96 eb 8b 3d
       0.09877222 -0.06603943 -0.04405489 0.06832044
000090 50 14 c8 3d d0 8d 8a bd 4e 44 a0 bd af 7d 8a 3d
       0.09769499 -0.0676533 -0.07825528 0.067622535
0000a0 f9 a9 83 bc ca 90 ee 3d 90 91 aa bd a8 cf e5 3d
       -0.01607226 0.1164871 -0.08328545 0.11221248
0000b0 45 eb 14 3e 62 4d 5c 3d 9a 96 a4 bd 17 8b f7 3d
       0.14542873 0.053784736 -0.080365375 0.12087076
0000c0 6c b2 49 3c 66 e9 00 3e 34 fa f0 bd a1 e9 96 bd
       0.0123106055 0.12589034 -0.117664725 -0.0736878
0000d0 08 73 eb bc 97 3a f9 3c 05 5a f5 bc ff af 17 3d
       -0.028741375 0.030423446 -0.029950151 0.037033077
0000e0 88 e8 fe 3d 7c 40 65 bd 9f 99 05 bd 42 8f 32 3d
       0.124466956 -0.0559697 -0.032617208 0.043593653
0000f0 be 2b d3 3d 8a e0 6f 3d 39 cf 11 3c 97 2b 4d bd
       0.103110775 0.058563747 0.008899503 -0.0500904
000100 d3 19 66 3d 64 04 34 3d 85 89 86 bc 00 2d c7 3d
       0.05617697 0.0439495 -0.016422996 0.0972538
000110 c4 7e c4 3c dd 3d 29 3d 2a 3e 3b 3e c0 5f 91 bd
       0.023986228 0.041318763 0.18285432 -0.07098341
000120 2f 3f a3 3c ae f2 17 3e 1d 94 d0 3c 43 12 b4 bd
       0.01992759 0.14838669 0.02546125 -0.08792546
000130 30 7f e1 bd fb 1e bb 3d 1f 72 89 3e 49 b8 94 bc
       -0.11010587 0.091367684 0.2684488 -0.01815428
000140 51 8e 15 bd 59 c3 c9 bd da 57 99 bc 2d 88 27 3e
       -0.036512677 -0.09851713 -0.018718649 0.1636054
000150 b5 b4 d3 3d 28 f7 a0 bd 4d 9c cd 3d d8 29 5c bd
       0.103372015 -0.07859641 0.10039578 -0.053750843
000160 eb b1 dd 3b 82 c0 49 3d 2e 1a db 3d 5b 35 f9 3c
       0.0067655942 0.049255855 0.10698353 0.03042095
000170 35 ab 9b bd ca 33 d4 3d 0a 23 b8 bd 3e d6 65 bc
       -0.076010145 0.103614405 -0.08991058 -0.01402813
000180 e3 65 49 bd 5e f2 07 bb 54 a3 17 bd 86 b3 23 bc
       -0.049169432 -0.0020743827 -0.037020996 -0.009991532
000190 67 5f d2 3d 38 3a b2 3d 9f 74 24 3d f6 ff 10 bd
       0.10272103 0.087025106 0.04015028 -0.035400353
0001a0 ed 16 a1 3d ea 13 e6 bc a6 86 af 3d 29 ad d0 3c
       0.07865701 -0.028085668 0.08570604 0.025473194
0001b0 a5 5d f4 bd f2 da b2 3d 27 2f 8d 3c 04 20 59 3c
       -0.11931924 0.08733167 0.017234398 0.013252262
0001c0 40 7b f3 3c ef b6 71 3e d6 17 e6 bc ae c7 b4 3b
       0.029721856 0.2360494 -0.028087538 0.0055169677
0001d0 25 15 5d 3d 6a 84 54 3d 19 c6 6b 3d a5 b7 56 bd
       0.053975243 0.051884092 0.057561968 -0.05242123
0001e0 c6 f7 96 bd 04 a4 ca bd 3e 8b 8d bd 0b 7d 5c 3e
       -0.07371478 -0.09894565 -0.06911324 0.21532075
0001f0 9c 10 b3 bd 82 38 18 bc c9 a0 56 bd 44 53 0c bd
       -0.08743402 -0.009290816 -0.05239943 -0.034259096
000200 26 1a 56 bd 0a 5d 63 bd 5b 7d 5c bd 00 7e 1d be
       -0.05227103 -0.05550865 -0.053830486 -0.15380096
000210 5d 60 c5 bd c3 a3 85 3d 71 ec 7e be 9f b8 fa bd
       -0.096375205 0.06525376 -0.24894883 -0.12242245
000220 39 44 21 bd d2 d1 31 bd e4 f3 22 be 90 f0 70 bd
       -0.039371703 -0.04341299 -0.1591335 -0.05882317
000230 fc 45 ef 3d d3 39 be bd dd ba 4b be 9d b2 44 be
       0.1168327 -0.09288373 -0.19895501 -0.1920876
000240 c8 c2 b6 3d a8 3e a5 3d 0d 7d c6 3c d5 0b 53 be
       0.0892387 0.08068591 0.02422955 -0.20609982
000250 08 89 95 3a e2 f4 eb 3b 38 91 72 3d 99 4c 31 bd
       0.0011408636 0.007200823 0.059220523 -0.04328594
000260 6d e9 9a bd d3 58 a5 3d 28 c5 d0 bd 83 bf e9 bd
       -0.07564054 0.080735825 -0.101938546 -0.11413481
000270 d1 22 a0 bd 3b d0 8f bb 62 9a 82 3d 04 6d 92 bc
       -0.07819141 -0.0043888367 0.063771024 -0.017874248
000280 29 99 81 bc 04 39 d2 3d 44 25 85 3d a8 a1 3a bd
       -0.015820103 0.10264781 0.065012485 -0.045564324
000290 c5 5c 10 be b5 fb 24 3d 91 19 0f 3d de 5e 23 bd
       -0.14097889 0.04027911 0.03493649 -0.039885394
0002a0 3d b8 c4 bc 74 d1 a7 bd 5a 64 35 bd 39 7c fa bc
       -0.024013633 -0.08194247 -0.044285156 -0.030576812
0002b0 56 99 25 be be ec 75 bd 07 a8 9d 3d 6a 3a bf bd
       -0.16171774 -0.060040228 0.07698064 -0.093373135
0002c0 92 32 bf bd 78 fd ac bd d4 1c 80 3d 07 86 c7 bd
       -0.093358174 -0.08446783 0.062554985 -0.097423606
0002d0 aa fc 1c bd 35 cd 9e 3d 98 d1 08 3e 9e cd c6 bc
       -0.038326897 0.07753984 0.13361204 -0.024267968
0002e0 ef 18 04 be bd 4b be 3c f8 18 15 3d 8c 19 15 be
       -0.12900136 0.023229474 0.036400765 -0.14560527
0002f0 05 b2 f0 3c fc 1b 84 ba a4 49 f3 bc f8 a6 81 3d
       0.029381761 -0.0010079141 -0.0296982 0.06330675
000300 ee 15 c9 bd 2f 69 6a bd ca fc 13 be 27 06 0e 3e
       -0.09818636 -0.057229217 -0.144519 0.13869534
000310 53 54 e4 3d c9 5e 2f 3d 2f ec 73 be 0b 62 35 be
       0.11148896 0.042815004 -0.23820566 -0.17713182
000320 50 0e 90 bd 03 25 84 3c c3 ba 03 be 90 54 9f bc
       -0.0703398 0.01613093 -0.12864213 -0.019449502
000330 d9 69 f4 3d 55 7e a2 3d 36 fd 55 bd 28 27 d5 bd
       0.11934251 0.07934252 -0.052243434 -0.10407859
000340 fb 55 d8 3b 40 63 62 3c 5e 6e d4 bd 64 a8 c9 bd
       0.0066020465 0.013817608 -0.10372613 -0.09846571
000350 e4 5b 4c 3d 82 f7 1d bd 1d 94 b0 bd 4b 51 59 bd
       0.04989232 -0.03856612 -0.08622 -0.053056043
000360 cd 0b f9 3d f4 d1 75 bd 8a c9 c6 bd d8 86 8e 3c
       0.12160454 -0.06001468 -0.09706409 0.017398283
000370 85 9e c2 3d 7e 40 24 3d ab 7f 97 bb da f1 b5 bc
       0.095028915 0.040100567 -0.0046233735 -0.02221005
000380 ac bb df 3a c2 6c da bd 68 9d 55 bb ff 88 a3 3d
       0.001706948 -0.10665275 -0.0032595042 0.07985114
000390 ab 1a c0 3d 8d a7 14 bc f6 38 fb 3d 90 39 52 bd
       0.093800865 -0.00907315 0.12266724 -0.051324427
0003a0 c0 15 af 3d d3 ec bd bd cf f0 1d 3c 1f c1 c0 3d
       0.0854907 -0.09273686 0.009639933 0.09411835
0003b0 bf 0b 0e be 01 90 e9 3d ff 48 5b bd e4 7a 56 bd
       -0.13871668 0.1140442 -0.05353641 -0.05236329
0003c0 a0 7c ae bd 1f 4a 88 bd 09 c4 9b 3d 54 bb c5 3d
       -0.08519864 -0.066547625 0.0760575 0.09654871
0003d0 ec 81 9f bd b9 2f 00 bd 82 2a 14 3d f5 3a 82 bd
       -0.077884525 -0.031295512 0.03617335 -0.063589014
0003e0 f6 e6 26 be 75 64 f3 bd 67 61 fb bc 31 b9 f7 bd
       -0.16299042 -0.11884395 -0.030686093 -0.12095869
0003f0 2c 22 df 3c c3 80 5a 3d f7 7e 9c bd 9f 9e a8 3d
       0.027237974 0.053345453 -0.07641404 0.082333796

transformer_encoder.layers.0.linear2.bias f4 [4]
000000 77 aa 2f 3d 19 36 c9 bb cc c4 df bd 32 e4 e2 bd
       0.042887177 -0.006140482 -0.10926208 -0.11078681

transformer_encoder.layers.0.norm1.weight f4 [4]
000000 b0 99 7c 3f e6 56 7d 3f b7 94 82 3f 05 5e 82 3f
       0.9867201 0.9896072 1.0201634 1.0184942

transformer_encoder.layers.0.norm1.bias f4 [4]
000000 99 bd a7 3b 7d 74 b0 3b 32 32 30 bc 18 34 19 bc
       0.0051190373 0.0053849802 -0.010754155 -0.009350799

transformer_encoder.layers.0.norm2.weight f4 [4]
000000 15 f5 7b 3f 45 3c 7d 3f 8c 63 82 3f 62 6c 80 3f
       0.9842084 0.9892009 1.0186629 1.0033076

transformer_encoder.layers.0.norm2.bias f4 [4]
000000 c5 96 6c 3b 25 05 05 3c 70 44 87 bc 4f 78 4a 3b
       0.0036100608 0.008118902 -0.016512126 0.0030894463

transformer_encoder.layers.1.self_attn.in_proj_weight f4 [12, 4]
000000 d0 1a c7 3e ac 13 36 3e 77 10 c1 3e 29 28 dc bc
       0.38887644 0.17780942 0.37707874 -0.026874619
000010 e5 2c 61 bc 53 19 f0 bd bd 7c 05 3f 2b 22 02 3f
       -0.013743614 -0.1172358 0.5214346 0.50833386
000020 01 b7 4f be 3a 37 87 3c aa 7e 04 3e 47 67 d4 3d
       -0.20284654 0.016505826 0.12938944 0.10371261
000030 e4 34 78 bd fa 03 90 be a7 b9 1b be 9d c0 cd bc
       -0.060597315 -0.28128034 -0.1520754 -0.02511626
000040 8c 14 70 3e d6 62 54 3e 6a c6 91 be 41 65 dc bb
       0.23445338 0.20740828 -0.2847169 -0.0067259376
000050 71 c9 78 bd bc ea fe 3d ac 07 62 bb 4a 9d fe be
       -0.060738984 0.12447116 -0.0034489436 -0.49729377
000060 ad 69 69 be b8 ad 9c 3d 91 0c af be d2 7b 08 bc
       -0.22794218 0.07650322 -0.34189275 -0.008330302
000070 81 bd 17 3b d2 04 6d 3e 0d 7a 7f 3d 51 b2 6b be
       0.0023153725 0.2314637 0.062372256 -0.23017241
000080 65 96 15 3f 14 6b 0e bf d4 c0 7f 3d 3d 8a e7 3e
       0.5843261 -0.5563214 0.062439755 0.45222655
000090 49 84 de 3e 1d 32 13 3f ff d6 a2 3e 40 0d bb 3e
       0.434603 0.5749834 0.31804654 0.36533546
0000a0 c6 3c af bd c1 4d 66 3e da 75 1c 3f 41 8d 2c be
       -0.085565135 0.22490598 0.6111733 -0.16850759
0000b0 2c 44 1a be c5 ef 06 bf 9a 82 52 be df 91 d9 be
       -0.15065068 -0.5270961 -0.20557633 -0.42494103

transformer_encoder.layers.1.self_attn.in_proj_bias f4 [12]
000000 ff 00 95 bc cf 23 00 bb 41 d7 77 bc 05 15 1f bc
       -0.018188952 -0.0019552594 -0.015127004 -0.009709601
000010 6a b1 39 34 46 19 1b 34 ec 29 0b 35 c0 64 ae b1
       1.729401e-07 1.4444694e-07 5.184254e-07 -5.0755204e-09
000020 35 aa 24 bc be 64 4a 3c 98 6b d9 ba f4 89 b7 3b
       -0.010050346 0.01235312 -0.0016587852 0.005601162

transformer_encoder.layers.1.self_attn.out_proj.weight f4 [4, 4]
000000 1f 7d 37 be 67 70 f6 3e bd 99 35 be 0b 6b 8f be
       -0.17918824 0.4813263 -0.17734428 -0.28011355
000010 9a 4d 93 3e c2 36 60 bd d0 8e e7 3e 16 90 ed bd
       0.28770143 -0.05473972 0.45226145 -0.11599748
000020 18 2e be 3e 51 11 c2 bd 1b 14 78 3e 31 f5 82 be
       0.37144542 -0.09475959 0.2422642 -0.2557769
000030 d1 0b bc be 1e b8 6a 3e 4b fa 93 3e 61 85 6e bd
       -0.36727765 0.22921798 0.28901896 -0.05823267

transformer_encoder.layers.1.self_attn.out_proj.bias f4 [4]
000000 2b ff f4 3b 0d 4c 77 3b 11 75 52 bc 25 e5 c0 3b
       0.0074767075 0.0037734539 -0.012845294 0.005886691

transformer_encoder.layers.1.linear1.weight f4 [64, 4]
000000 95 3a dc be 0e 50 48 3e 02 4f d1 bd b7 18 af be
       -0.43013445 0.19561788 -0.10220148 -0.34198543
000010 2d 98 cf be b4 05 ae bd 06 e9 d5 3e 7b 44 f8 bd
       -0.40545788 -0.084971815 0.41779345 -0.121224366
000020 84 57 08 be 46 70 d0 bc 91 15 9c 3e 91 6f 76 3e
       -0.13314635 -0.025444161 0.30485204 0.24065997
000030 75 d0 57 3e 7a 30 e6 3e f9 e5 79 bd 75 22 79 3e
       0.21075614 0.4495886 -0.061010335 0.2432955
000040 8b 97 31 be ec fb 1e 3e 34 58 ac bd 0d 21 16 3d
       -0.17342965 0.15525788 -0.08415261 0.036652613
000050 54 6f 8b 3e 94 d6 73 bd 8d f6 f2 be b3 15 e1 3c
       0.27233374 -0.05953081 -0.47453728 0.027476167
000060 17 03 b9 3e 82 92 cd be a8 16 e9 3e f7 dc 93 3e
       0.3613517 -0.4015084 0.45525098 0.2887952
000070 ce 98 e2 3e f4 c9 e4 be 32 13 c4 3e 33 6a a5 3e
       0.44257206 -0.44685328 0.38295895 0.32307586
000080 14 76 d3 bc 83 28 e5 bb 80 c8 ef 3e 54 c5 d0 bd
       -0.02581314 -0.0069933548 0.46832657 -0.10193887
000090 31 18 b8 3e 29 33 84 be fd 29 23 bd d1 07 aa 3d
       0.35955957 -0.25820282 -0.039834965 0.08302272
0000a0 07 41 f4 3d 59 63 c3 be 67 fb 42 3e 3d 48 59 bd
       0.119264655 -0.38161734 0.19041215 -0.053047407
0000b0 76 1f 91 3d 75 39 13 3e 87 f0 3b 3e 48 22 28 3e
       0.07086079 0.14377387 0.18353473 0.16419327
0000c0 ad 4d f9 be 7a 34 7e 3d 32 b6 c7 3e d9 75 37 3d
       -0.48692074 0.062061764 0.39006191 0.044790123
0000d0 f9 2a 50 be 8e f0 af bd b2 ff d9 be 77 b7 cd be
       -0.20328893 -0.08590804 -0.42577893 -0.40179035
0000e0 93 cb a1 3e ed 9e c0 bc 33 f5 cd bd 69 47 24 bf
       0.31600627 -0.023513282 -0.10056534 -0.64171463
0000f0 8d 15 c4 3d 43 82 aa be 0e f9 de be 10 76 03 bf
       0.09574423 -0.33302507 -0.4354939 -0.51352024
000100 a5 76 89 be ad 8a c9 3e f1 68 ef bd 66 e1 ae bd
       -0.2684833 0.39363614 -0.11689938 -0.08539085
000110 70 b6 01 3c e6 36 9c 3e 1a 6f d3 be 72 b1 3d be
       0.007917032 0.30510634 -0.412957 -0.18524721
000120 ea 08 ed be c7 5a e5 be 2e ad 17 be 7d 1b e3 bc
       -0.46295863 -0.4479582 -0.14812157 -0.027723068
000130 4c cb e2 3e b7 99 9f bd 2b 58 ad bd 3d 8b 06 bf
       0.44295728 -0.07792991 -0.08464082 -0.5255621
000140 09 9b 3e 3e f6 d1 06 3e 77 45 f8 bd df 7b cc be
       0.18613829 0.13166031 -0.12122624 -0.39938256
000150 fe e0 ed 3e d8 ef fc 3c 9f 2e 72 be 66 67 e6 3e
       0.46460718 0.030876085 -0.23650597 0.45000762
000160 b4 d5 ce be 9a c5 fe 3d 19 c6 e2 be 90 8c a9 3e
       -0.40397418 0.12440033 -0.44291762 0.33115053
000170 a8 4c df be fe 1e a5 be eb 45 f2 be 85 0c 2e 3e
       -0.43613172 -0.32250208 -0.47318968 0.16996963
000180 0d 97 73 3e 2a 18 a1 3e 73 a7 f9 bd 5a 2f 06 bf
       0.2378809 0.31463748 -0.121901415 -0.52416
000190 2d 49 ae be c2 99 8d be 35 9f 68 3e 9c 96 b2 bd
       -0.34040204 -0.2765637 0.22716983 -0.08720133
0001a0 5a 05 97 3e d2 b8 9c 3e 56 28 92 3d 5a d7 fe be
       0.2949627 0.30609757 0.071366 -0.49773675
0001b0 de 53 77 3e 89 f1 70 be 57 4b d1 be 2f a0 53 be
       0.24153087 -0.23529638 -0.40877792 -0.20666574
0001c0 8d e2 a9 3e 21 91 75 be d5 2c 64 3e 83 dd 81 be
       0.33180657 -0.23981144 0.22282727 -0.25364313
0001d0 18 33 e6 bd f6 e1 df 3e 00 fb 09 3e ec d9 83 be
       -0.11240214 0.43727082 0.13474655 -0.257522
0001e0 c8 da 54 be 9b f1 b6 3e ba 45 44 3e 3a bc b0 3e
       -0.20786583 0.35731205 0.19167224 0.34518605
0001f0 38 98 96 3c 0f c0 45 3d 0f aa 81 be 78 92 86 3e
       0.01838313 0.048278864 -0.25325057 0.26283622
000200 c3 ac 21 be 29 23 e8 be 2f f6 c6 be 95 39 89 3e
       -0.1578856 -0.45339325 -0.38859698 0.26801744
000210 19 ac 46 3d eb 1a 0c 3e c9 da ee 3e 43 13 42 3e
       0.04850397 0.13682143 0.46651295 0.1895266
000220 59 53 96 be 2c 1b 79 be 1d 2b c5 3e d1 a0 10 3d
       -0.29360464 -0.24326771 0.38509455 0.035309616
000230 27 ec c8 be d1 0d 65 3e ea 79 75 bc 8d c8 8b be
       -0.3924267 0.22368552 -0.01498268 -0.27301446
000240 ac fb e1 3e 71 2a a9 3e d5 5f aa 3d 08 1c ab 3e
       0.44137323 0.33040193 0.0831906 0.33419824
000250 cf 84 56 3e af c0 2f be fc 50 c2 3e 03 f8 42 3e
       0.209491 -0.17163347 0.3795241 0.19039921
000260 11 ec 6d be b0 6f 5f be 25 03 e4 3e a9 40 a1 be
       -0.23234583 -0.21819949 0.4453365 -0.31494644
000270 60 80 67 3e bc 2d ee 3e 43 e0 9a 3e f3 43 16 bd
       0.22607565 0.46519268 0.30249223 -0.036685895
000280 d2 b5 e8 3e 49 da 24 be 3a f0 77 bd 75 b6 54 3e
       0.45451218 -0.16098894 -0.060531832 0.20772727
000290 5f af 84 be ea db ac be 06 6d a5 3e 7c 2c f8 bb
       -0.25915048 -0.3376153 0.3230974 -0.0075736623
0002a0 83 97 3d 3e ba c6 89 3d 47 b2 02 3d e5 2a ad be
       0.18514828 0.06727357 0.0319083 -0.33821788
0002b0 17 8c b7 3e f5 10 58 be 5d 98 da be 43 14 05 3f
       0.35849068 -0.21100219 -0.4269437 0.5198404
0002c0 4d ca 92 3e 76 fd 91 3d 4e d4 80 3e 47 d0 00 3f
       0.28669968 0.07128422 0.25161976 0.50317806
0002d0 fa e4 4e 3e 18 3a 3b 3e 67 e8 de be 17 0a 8c be
       0.20204535 0.1828388 -0.43536684 -0.27351448
0002e0 13 8a 03 3e fb 68 b1 3e 75 b1 56 3e 9a 0b b8 be
       0.1284564 0.34650406 0.20966132 -0.3594635
0002f0 66 cc 1c be 94 38 2b 3c d9 75 b6 3e 7b 33 dc 3d
       -0.15312347 0.010450501 0.35636786 0.107520066
000300 a7 62 e6 3d 8b d2 c2 3d 96 9b 00 3d 06 de e8 3e
       0.11249285 0.09512814 0.03139838 0.4548189
000310 55 01 d6 3e a7 e9 40 3e 67 67 a4 3e 72 91 f7 3c
       0.4179789 0.18839131 0.3211014 0.03022072
000320 4e ac 47 be bc 5e e6 3e a0 76 f6 bd 34 9a b2 bd
       -0.19499323 0.44994152 -0.12034345 -0.08720818
000330 6a 99 e1 3d 9d e9 34 3e 5d 20 02 be c7 75 13 bf
       0.110155895 0.17667241 -0.12707658 -0.5760159
000340 12 9c fa 3d 44 6a 00 bf d6 fe 7b bd 15 c7 ab 3d
       0.12236799 -0.5016215 -0.061522327 0.08387581
000350 54 a0 0f 3e 72 91 df be 43 a3 92 be 5b 81 a6 3e
       0.14026004 -0.43665653 -0.28640184 0.32520565
000360 33 aa 9d be 66 a7 e5 3e e8 7f c6 3d bf 54 32 be
       -0.30793914 0.44854277 0.09692365 -0.1741514
000370 b7 35 75 be 5f f4 b0 3d 20 84 b7 be cb 43 77 3e
       -0.23946272 0.0864036 -0.3584299 0.24146955
000380 a5 fa 45 3e 02 f8 e1 be 91 ee bf 3e 65 10 ad 3e
       0.19333895 -0.44134527 0.374867 0.3380157
000390 b1 e8 42 be 88 d8 19 bd bf 74 fb 3e 7c 56 96 3e
       -0.19034077 -0.037560016 0.49112508 0.29362857
0003a0 2e 3b b9 be 01 11 e8 be 23 25 97 3e 05 bb 2f 3e
       -0.36177963 -0.45325473 0.2952052 0.17161186
0003b0 26 16 a6 3e 6c 36 9e be d2 69 28 be 73 13 e8 be
       0.32438773 -0.30900896 -0.16446617 -0.4532734
0003c0 ee 16 05 be f6 6b f4 3e 49 b2 cd be f8 be 50 3e
       -0.12997028 0.47738618 -0.40175083 0.20385349
0003d0 3f 89 51 3e f8 60 38 3e 79 8d 14 3e 70 d9 77 be
       0.20462511 0.1800574 0.14507093 -0.2420404
0003e0 ed 3f 9e 3e 60 db f4 bd 33 7d 3c 3e 11 de bd 3e
       0.30908147 -0.11955905 0.18407135 0.37083486
0003f0 c1 12 db 3e 08 9e 25 3e 54 14 8b bd 7f b9 4f be
       0.42787746 0.16173565 -0.06790987 -0.20285605

transformer_encoder.layers.1.linear1.bias f4 [64]
000000 ee 7a 8c be e8 d2 e7 3d f8 ef e2 be 2e 36 d1 be
       -0.27437538 0.11319524 -0.44323707 -0.40861648
000010 1d 44 7d 3e 16 10 9a 3e 72 54 e7 be e4 b5 19 3e
       0.24733014 0.30090398 -0.45181614 0.15010792
000020 d7 0d 1d be 0c 05 aa be 78 e2 a0 bd 5d 2e a4 bd
       -0.1533731 -0.33206975 -0.078556955 -0.080166556
000030 e0 47 76 3e a0 1a 15 be 8a 59 bc be 78 56 d4 bd
       0.24050856 -0.14560938 -0.36787063 -0.10368055
000040 e6 5b 7a 3d a1 6c f1 be 62 a3 9a bd 55 d8 31 be
       0.061122797 -0.4715319 -0.07550694 -0.1736768
000050 26 4e 97 3e 7a 0b bc 3e f8 29 ae 3d 04 96 d3 3e
       0.2955181 0.36727506 0.08504099 0.4132539
000060 9b f6 23 bd 38 f7 63 3e b3 e7 b6 3e c6 f7 b6 3e
       -0.040030103 0.22262275 0.35723647 0.3573591
000070 8e 48 7c 3e 14 de dc be 79 c8 ec 3e 63 0e 89 3e
       0.24637052 -0.43138182 0.46246698 0.2676879
000080 d0 08 82 3d 61 10 63 3e 19 1e d3 3e 19 6a 5c 3e
       0.06349337 0.22174217 0.412339 0.21524848
000090 62 4b 37 be 22 8d 80 3e 0c 9d a9 bd 2e ee 73 3e
       -0.1789985 0.25107676 -0.082819074 0.23821327
0000a0 b4 c0 ee bd 89 b9 a9 bb 54 32 44 bd d1 36 31 3e
       -0.11657849 -0.005179588 -0.04789956 0.17306067
0000b0 bc b4 3f bd 60 d3 8f bd ed fd c3 3e 44 df af be
       -0.04680322 -0.070227385 0.38279667 -0.34350026
0000c0 07 34 ac be 50 41 54 be 52 23 c9 3e 20 85 3a be
       -0.33633444 -0.2072804 0.3928476 -0.18214846
0000d0 a5 9e 20 3e 01 e5 31 3e ec 05 c0 be a1 1b 41 3e
       0.15685518 0.17372514 -0.37504518 0.18858196
0000e0 3a 4c 83 bd 08 5d 88 be ab 43 fa 3e 37 3b b7 be
       -0.064110234 -0.26633477 0.48879752 -0.35787365
0000f0 96 fb 9f 3e 96 e3 c2 be b4 28 aa 3d d0 43 97 3e
       0.31246632 -0.3806426 0.08308545 0.29543924
